group_constrained/mlp_seed_153/model_best.pth (torch, 827563 bytes, 21 tensors)

mlp.fc1.weight f4 [256, 4]
0	0x3cfe5529	0.031046467
1	0x3c74e76a	0.014947752
2	0x3db52f3b	0.08846899
3	0xbd58867b	-0.052862626
4	0x3c36580f	0.011129393
5	0xbd521868	-0.051292807
6	0x3d480e04	0.04884149
7	0xbd0ebce7	-0.03484812
8	0x3df61a3a	0.12016721
9	0x3d8edc2c	0.06975588
10	0x3d2a0a56	0.041513763
11	0xbd28ddd6	-0.041227184
12	0x3de837f2	0.11338796
13	0xbd5d6f86	-0.054061435
14	0xbd9af996	-0.07567136
15	0xbd00f800	-0.03148651
16	0x3da27280	0.079319954
17	0x3ca3ef12	0.020011459
18	0xbd37e88b	-0.044899505
19	0x3e4cc960	0.19998693
20	0xbd89d10a	-0.06729324
21	0xbdee0577	-0.11622136
22	0x3e49de1a	0.19713631
23	0x3e12507d	0.14288516
24	0x3e84036d	0.25783864
25	0x3c48b595	0.012250324
26	0x3d84a43f	0.0647664
27	0xbaad0b57	-0.0013202232
28	0xbbb30bd3	-0.005464056
29	0x3c9687ef	0.018375365
30	0x3d1f58a8	0.03890291
31	0x3d8481fb	0.06470104
32	0xbb782843	-0.0037865795
33	0xbc30c151	-0.010788278
34	0x3c3b125b	0.0114179505
35	0x3d30d5b2	0.043172546
36	0x3b7f0a4d	0.0038916052
37	0x3c25fa4f	0.010130479
38	0xbd8a74c3	-0.06760552
39	0x3e62e436	0.22157368
40	0xbe3e4f61	-0.18584968
41	0x3e828be5	0.25497356
42	0xbd71a27e	-0.058992855
43	0xbd52069f	-0.051275846
44	0x3d180c02	0.037120827
45	0x3d8bee97	0.06832617
46	0x3e5a14c8	0.2129699
47	0x3dd396f2	0.10331525
48	0x3d771f82	0.060332783
49	0x3d115437	0.035480704
50	0xbd44c469	-0.048038874
51	0x3e2e4faa	0.17022577
52	0x3c617b70	0.01376234
53	0x3c791b2a	0.01520423
54	0xbc04b8b1	-0.0081006745
55	0x3d0ca55d	0.03433739
56	0xbd987154	-0.074434906
57	0xbdf7fa3d	-0.12108276
58	0xbe3a8456	-0.18214545
59	0x3e2cf79d	0.16891332
60	0x3d95d3e9	0.07315809
61	0xbd8319d8	-0.06401414
62	0x3d966e1e	0.07345222
63	0x3d5e1416	0.054218374
64	0xbda6a59f	-0.081370585
65	0x3de2736e	0.11057173
66	0x3da8b9a5	0.08238534
67	0x3d32c135	0.043641288
68	0xba3f58d3	-0.00072993076
69	0x3e2ebe33	0.17064743
70	0x3d544964	0.051827803
71	0xbd4e3e66	-0.050352477
72	0xbb211b0d	-0.0024582774
73	0xbb836e8a	-0.00401098
74	0xbe9bd2e6	-0.3043434
75	0xbbb87179	-0.0056287614
76	0x3e2a39f8	0.16623676
77	0x3e47507c	0.19464296
78	0xbd153683	-0.03642894
79	0x3c24f9c0	0.010069311
80	0x3c5ace9c	0.013354924
81	0xbc8d96f6	-0.017283898
82	0xbb59ddc2	-0.003324375
83	0xbd89d7af	-0.067305915
84	0x3d7f04f6	0.06226059
85	0x3d89606f	0.067078464
86	0x3df907b2	0.12159671
87	0x3e0b866d	0.13625498
88	0x3bd765a6	0.0065733967
89	0x3c4753c9	0.012165972
90	0xbe75f960	-0.2402091
91	0xbd2cc851	-0.042183224
92	0x3cfa8b65	0.030584047
93	0x3d5f84bd	0.05456995
94	0xbcbe5897	-0.023235602
95	0x3e0e4eec	0.13897294
96	0x3de0c3c3	0.109748386
97	0x3c31e91b	0.010858799
98	0x3de86c98	0.113488376
99	0xbb77502b	-0.0037736993
100	0x3e1cecb7	0.15324675
101	0x3db1ce1b	0.086818896
102	0xbd2975f0	-0.04137224
103	0xbd761008	-0.060073882
104	0x3acdc6fd	0.0015699562
105	0xbd4b7981	-0.049676422
106	0xbce98750	-0.028506905
107	0x3b88e1b1	0.004177295
108	0x3cd3c79d	0.025852019
109	0xbc81d48b	-0.015848419
110	0xbd7b121b	-0.061296564
111	0x3dd88ddd	0.10573933
112	0x3cf94226	0.03042705
113	0x3d8e03ed	0.069343425
114	0x3e05ea71	0.13077714
115	0x3e61ff9b	0.22070162
116	0x3d097270	0.0335564
117	0x3d8b0f2a	0.06790002
118	0x3d9b3d81	0.0758009
119	0x3dc93480	0.09824467
120	0x3d2215c0	0.039571524
121	0xbd31cee5	-0.0434102
122	0x3d2ccdb9	0.04218838
123	0x3e20dfeb	0.15710418
124	0xbe354de2	-0.17705491
125	0xbddd225d	-0.1079757
126	0x3bd3f25e	0.0064681014
127	0xbd46bad2	-0.04851801
128	0xbe81e9ac	-0.2537359
129	0x3d0872e7	0.033312704
130	0xbd2579b7	-0.04039928
131	0xbd0a83f9	-0.033817265
132	0x3ccaa22c	0.024735533
133	0xbca33973	-0.019924855
134	0x3d5c0155	0.053712208
135	0xbb17e371	-0.0023176337
136	0xbcd848b1	-0.02640185
137	0x3df7ef48	0.12106186
138	0xbce46bab	-0.027883371
139	0x3dc4221c	0.09576818
140	0x3bb9ba41	0.005667955
141	0x3e084f25	0.13311441
142	0x3b985e28	0.004649896
143	0x3d82fbad	0.063956596
144	0x3ca2d5f0	0.019877404
145	0xbdb03d84	-0.08605483
146	0x3d080771	0.03321022
147	0x3ce098e2	0.02741665
148	0x3a8f9758	0.0010955138
149	0x3c895299	0.016763018
150	0x3ab47b4a	0.0013769653
151	0x3cef5f04	0.029220112
152	0xbe0e5b40	-0.13901997
153	0xbdabec7a	-0.08394714
154	0x3c5133eb	0.012768726
155	0x3e13757d	0.14400287
156	0x3d349710	0.044089377
157	0xbddbd139	-0.107332654
158	0x3cfdc697	0.030978484
159	0x3db52dbc	0.08846614
160	0x3cc095de	0.023508962
161	0x3c9e26a6	0.019305538
162	0xbd5caf62	-0.053878196
163	0x3e261e45	0.16222484
164	0x3c8db7d8	0.017299578
165	0x3da338a8	0.07969791
166	0x3d805abb	0.062673055
167	0x3dd199aa	0.10234387
168	0x3ce1598c	0.02750852
169	0xbb521264	-0.0032054419
170	0xbdbe6605	-0.092968024
171	0xbe994082	-0.29932028
172	0x3da28dfe	0.07937239
173	0xbe815f74	-0.25268137
174	0xbd188fc5	-0.037246484
175	0xbd3569ef	-0.04429048
176	0x3d026f83	0.031844627
177	0x3c76d2fa	0.015064949
178	0x3bf8278c	0.0075730737
179	0x3d3596e9	0.044333372
180	0xbb83bd1e	-0.0040203473
181	0x3d202858	0.039100975
182	0xbc84d6ef	-0.01621577
183	0x3dc87ec3	0.09789803
184	0xbbc8bad0	-0.0061257854
185	0xbb0170cc	-0.001975107
186	0x3b8617e1	0.004092202
187	0xbd7dc9ac	-0.061959907
188	0xbbb9b385	-0.0056671523
189	0x3e32569f	0.17415856
190	0xbc2cd643	-0.010549131
191	0x3d5bf495	0.05370005
192	0xba82525b	-0.0009942757
193	0xbb344b68	-0.0027510766
194	0x3b6759fd	0.003530144
195	0x3ce141cd	0.027497197
196	0xbd3e17f2	-0.046409555
197	0xbafed4e1	-0.0019442105
198	0x3a41941e	0.0007384437
199	0x3d574565	0.052556414
200	0xbdca4d3f	-0.09878015
201	0x3da17209	0.078830786
202	0x3dc7a2a9	0.09747822
203	0x3e4b8986	0.1987668
204	0xbd26f443	-0.04076029
205	0xbd8ee92a	-0.06978066
206	0xbc84f6fb	-0.01623105
207	0x3d6e577d	0.058188904
208	0x3ddb40db	0.107057296
209	0xbe1d8f4b	-0.15386693
210	0xbe1fe714	-0.15615493
211	0x3dc1fda1	0.09472204
212	0x3ca31cf8	0.019911274
213	0x3e100774	0.14065343
214	0xbd342a7d	-0.043985832
215	0x3e2ea235	0.17054065
216	0xbc196196	-0.009361645
217	0xbba8cb3b	-0.00515118
218	0x3d51a8e3	0.051186454
219	0x3d74b9cd	0.059747506
220	0x3b9aed2f	0.0047279815
221	0x3d3c49b6	0.045968734
222	0x3ea5f924	0.32416642
223	0xbd850a38	-0.0649609
224	0x39b869d2	0.00035174057
225	0x3e05b4e5	0.13057287
226	0x3cd1c409	0.025606172
227	0xbd7439da	-0.059625484
228	0xbc7863b1	-0.015160487
229	0x3d3960d0	0.045258343
230	0xbb984c7f	-0.004647791
231	0xbc9dc01d	-0.019256646
232	0x3caf25df	0.021380363
233	0x3d38cae7	0.045115378
234	0x3cb51f44	0.022109635
235	0x3dc64319	0.096807666
236	0x3c48cc75	0.012255778
237	0x3d4bf5fd	0.04979514
238	0x3da7b9d2	0.08189739
239	0x3aabe0e6	0.001311329
240	0x3aed4b89	0.0018104176
241	0xbbffbbcf	-0.007804371
242	0xbc4b646c	-0.012414079
243	0x39a168e0	0.0003078645
244	0xbdeb40d8	-0.11486977
245	0xbe204e9e	-0.1565499
246	0xbdb6579c	-0.08903429
247	0xbd3062b8	-0.043062896
248	0x3d5a22f4	0.05325599
249	0x3d107fc3	0.035278093
250	0x3d09f08a	0.03367666
251	0x3d5bcd70	0.053662717
252	0xbb80c015	-0.003929148
253	0x3b57fa8c	0.0032955734
254	0x3dd5977a	0.104292825
255	0x3dcc5469	0.099770375

mlp.fc1.bias f4 [256]
0	0xbf24bc12	-0.6434947
1	0xbeda3b0b	-0.4262317
2	0xbd18089e	-0.037117593
3	0xbd635e05	-0.055509586
4	0xbf16124b	-0.5862166
5	0xbd801c24	-0.062553674
6	0xbdc8d9e3	-0.098071836
7	0xbe0a9c0b	-0.13536088
8	0xbf105a72	-0.5638801
9	0xbe05f24c	-0.1308071
10	0xbdcc51fb	-0.09976574
11	0xbc42b53e	-0.011884032
12	0xbf167aa8	-0.5878091
13	0xbe8c5850	-0.27411127
14	0xbe760bb7	-0.24027906
15	0xbd99e80e	-0.07514964
16	0xbd5d5937	-0.05404016
17	0xbf36f2fc	-0.71464515
18	0xbe9dbbac	-0.30807245
19	0x3e9d523e	0.30726808
20	0xbe5e5537	-0.21712194
21	0xbf2b8adb	-0.6700875
22	0xbe94192b	-0.28925452
23	0xbf0f2670	-0.55918026
24	0x3e5288c7	0.20559989
25	0x3ebb16a5	0.36540714
26	0xbef6a9b6	-0.48176354
27	0xbe8f1b54	-0.27950537
28	0x3d6057f7	0.05477139
29	0xbf15461a	-0.5831009
30	0x3d874352	0.06604637
31	0xbe4eba0d	-0.2018816
32	0xbe3a4b10	-0.18192697
33	0xbef04b5e	-0.469325
34	0xbeead063	-0.4586211
35	0xbf23da5e	-0.64005077
36	0xbf205dc0	-0.6264305
37	0xbe286430	-0.16444468
38	0xbe15273c	-0.14565748
39	0xbf3391ca	-0.7014433
40	0xbd863928	-0.065538704
41	0xbf1e91e6	-0.61941373
42	0xbeb32648	-0.34990144
43	0xbe83bfc7	-0.25732252
44	0xbead85d3	-0.33891162
45	0xbe48fcad	-0.19627638
46	0xbe3e6b60	-0.18595648
47	0x3e8df25f	0.27723977
48	0xbe90bcdc	-0.28269088
49	0xbe1768a3	-0.1478601
50	0xbe09ff2b	-0.13476245
51	0xbeb81f72	-0.3596149
52	0xbede773b	-0.4345034
53	0x3df70aa6	0.12062578
54	0xbe14ef1a	-0.14544335
55	0xbe1be05e	-0.15222308
56	0xbd6733c4	-0.056445852
57	0xbe7177ab	-0.23580806
58	0xbf3bd689	-0.7337423
59	0xbe8a1782	-0.2697106
60	0xbe918c06	-0.28427142
61	0xbe90f5fe	-0.28312677
62	0xbf11f5ad	-0.57015496
63	0xbcad1d4f	-0.02113214
64	0x3e4e7c36	0.2016457
65	0x3e8e9c4d	0.27853623
66	0xbe8921a9	-0.26783493
67	0xbc05fdf2	-0.008178221
68	0xbe92ef3a	-0.2869814
69	0x3d2e4e29	0.042555008
70	0xbe9b35b5	-0.30314413
71	0x3d1948a4	0.03742279
72	0x3e7c0353	0.24610643
73	0xbe084f5e	-0.13311526
74	0xbe2ccb06	-0.16874322
75	0xbf2cde0a	-0.67526305
76	0xbf190a65	-0.59781486
77	0xbf3256c7	-0.6966366
78	0xbe4ffd79	-0.20311536
79	0xbf0bf2c6	-0.5466732
80	0xbdf09b59	-0.1174838
81	0xbdd221cb	-0.10260352
82	0xbe2c4161	-0.16821815
83	0xbeef07dc	-0.46685684
84	0x3cd6aef4	0.026206471
85	0x3e2b2bab	0.16715877
86	0xbebff3d7	-0.37490723
87	0xbee02002	-0.4377442
88	0xbd80a9e7	-0.06282406
89	0xbf3d2577	-0.7388529
90	0xbe554b31	-0.20829464
91	0xbdaee6bf	-0.08540105
92	0x3caa1a6e	0.020764556
93	0xbf0b5904	-0.544327
94	0xbd41f151	-0.047349278
95	0x3cc75f3a	0.0243374
96	0xbe47daa8	-0.19517004
97	0xbd56dead	-0.052458454
98	0x3ecf9d10	0.40549517
99	0xbec1a976	-0.378246
100	0xbd8c9233	-0.06863823
101	0xbcf9a3b6	-0.030473571
102	0xbd3aea51	-0.045633618
103	0xbea54f07	-0.32286856
104	0xbe186e3c	-0.14885801
105	0x3eb1f7ab	0.34759268
106	0xbed9949e	-0.42496198
107	0x3db38fc7	0.08767658
108	0xbebcd80d	-0.36883584
109	0xbe36f48b	-0.17866723
110	0x3dd217ba	0.10258432
111	0xbefb738a	-0.49111587
112	0x3d33f36e	0.043933325
113	0xbe0cee95	-0.13762887
114	0x3dc20ee1	0.09475494
115	0xbe8c98cf	-0.27460334
116	0xbe1b302d	-0.15155096
117	0xbe1e5e7c	-0.1546573
118	0x3eafb4d3	0.34317645
119	0x3e1f5338	0.15559089
120	0xbea49014	-0.32141173
121	0xbe3c9aae	-0.1841838
122	0xbe4b0ea1	-0.19829799
123	0x3e7603d1	0.24024893
124	0xbc08a761	-0.0083406875
125	0x3e91df2a	0.28490573
126	0xbe535fa7	-0.20641957
127	0xbdfeda52	-0.12443985
128	0xbf2bd0e7	-0.67115635
129	0xbce7e610	-0.028307945
130	0x3decfec2	0.11572029
131	0xbdb97b85	-0.090567626
132	0x3e9b69fa	0.3035429
133	0x3e68ec53	0.227464
134	0xbe454aba	-0.19266787
135	0x3d235d54	0.039883927
136	0x3e166cb7	0.14689909
137	0x3e48a307	0.1959344
138	0x3e85a5fc	0.261032
139	0xbdf437b5	-0.11924688
140	0xbe93a9f0	-0.2884059
141	0xbebad3fe	-0.36489862
142	0xbe2e4595	-0.17018731
143	0xbd9b89ca	-0.075946406
144	0x3e55c560	0.20876074
145	0xbd62eb5b	-0.055400234
146	0xbe742c53	-0.23845033
147	0x3e8d842c	0.27639902
148	0xbe61b67d	-0.2204227
149	0x3e3feb9f	0.18742226
150	0xbe915062	-0.2838164
151	0xbe16f7a4	-0.14742905
152	0xbe996b9f	-0.2996492
153	0xbe5fd518	-0.21858633
154	0x3e59a6f2	0.21255091
155	0xbecc0447	-0.39847013
156	0xbe914491	-0.28372625
157	0xbe142298	-0.14466321
158	0xbe82e900	-0.2556839
159	0xbe793643	-0.24337105
160	0xbeb9eaa1	-0.3631182
161	0xbf2a77ea	-0.66589224
162	0xbdd5189b	-0.10405084
163	0xbe21f2cc	-0.15815276
164	0x3e2f3f09	0.1711389
165	0xbf4edb2e	-0.8080319
166	0xbd99033a	-0.074713185
167	0xbc31291d	-0.010813025
168	0xbed837d6	-0.422301
169	0xbd07a324	-0.033114567
170	0xbecaafe9	-0.39587334
171	0x3e3c3b1b	0.18381922
172	0xbdb542a7	-0.088506036
173	0xbe8a302d	-0.2698988
174	0x3e1449e6	0.14481315
175	0xbf1d8c96	-0.6154264
176	0xbe881c89	-0.2658427
177	0xbd990be5	-0.07472972
178	0xbf2c72a4	-0.6736243
179	0xbe6e5706	-0.23275384
180	0xbf594074	-0.8486397
181	0x3bb15c7a	0.0054126354
182	0x3d871b47	0.065969996
183	0xbed76187	-0.42066595
184	0x3ea1be54	0.3159052
185	0xbec86521	-0.39139655
186	0xbea78f5e	-0.32726568
187	0xbd67fb80	-0.056636333
188	0xbe72338a	-0.23652473
189	0xbe5ea740	-0.21743488
190	0xbee2bd55	-0.44285074
191	0x3e43ef2c	0.19134206
192	0x3e665ad0	0.2249558
193	0xbe1b7376	-0.15180764
194	0xbe7935b7	-0.24336897
195	0x3ea26b42	0.31722456
196	0x3e3fee03	0.18743138
197	0xbe13b4e0	-0.14424467
198	0xbf35def3	-0.7104332
199	0xbf046ecf	-0.5173158
200	0xbf1d8b79	-0.61540943
201	0xbecd78c3	-0.40131196
202	0xbd26b5d1	-0.040700737
203	0xbf2af66b	-0.66782254
204	0xbe2b48ed	-0.16727038
205	0xbd60ffe1	-0.054931525
206	0xbf2c1430	-0.67218304
207	0xbe3c54d0	-0.18391728
208	0xbe977d53	-0.29587802
209	0xbdbae75f	-0.09126162
210	0xbe776707	-0.24160396
211	0xbd461a09	-0.048364673
212	0xbeee715a	-0.46570855
213	0xbe5c41b2	-0.21509436
214	0x3e47cc35	0.19511493
215	0xbdd9711b	-0.10617276
216	0xbe736cbd	-0.23771949
217	0xbd3ba2ee	-0.04580968
218	0x3e845709	0.25847653
219	0xbe6da27d	-0.23206516
220	0xbdbc67bc	-0.09199473
221	0xbeb39f34	-0.350824
222	0xbdb00800	-0.08595276
223	0x3dd29f84	0.102843314
224	0xbf0d5f96	-0.5522398
225	0xbef3dc3a	-0.47628957
226	0xbdb64d27	-0.089014344
227	0xbf0535dd	-0.52035314
228	0xbea09521	-0.31363776
229	0xbdf16de1	-0.11788536
230	0xbe7de09e	-0.24792716
231	0x3d11271a	0.03543768
232	0xbf192b17	-0.59831375
233	0xbed12288	-0.40846658
234	0xbe1ec02a	-0.15502992
235	0xbdf4ec96	-0.11959188
236	0x3ec0734b	0.37587962
237	0x3e7e57ba	0.24838153
238	0xbe0fcffa	-0.1404418
239	0x3e002b37	0.12516485
240	0x3d31e2f1	0.04342932
241	0x3e35f83a	0.17770472
242	0x3ebbbf2e	0.36669296
243	0xbe3f7a80	-0.18699074
244	0xbe9b0d7e	-0.3028373
245	0xbeab24db	-0.33426556
246	0xbe8111c7	-0.25208876
247	0xbe276fe0	-0.1635127
248	0xbdcc40d0	-0.099732995
249	0xbee89947	-0.4542944
250	0xbe97f4cb	-0.2967895
251	0xbc5ac964	-0.013353679
252	0xbd0b3bca	-0.033992566
253	0x3e0c8eee	0.13726398
254	0x3cfd0898	0.030887887
255	0xbdde7b02	-0.10863306

mlp.fc2.weight f4 [256, 256]
0	0xbe5717de	-0.21005198
1	0xbd9f4091	-0.07775987
2	0xbdc7ca6c	-0.09755406
3	0xbcf833db	-0.030298164
4	0x3cf46d73	0.029837346
5	0xbd4510ee	-0.04811185
6	0x3bd7f1d2	0.0065901065
7	0xbd9c2007	-0.07623296
8	0xbdbf1330	-0.093298316
9	0xbd8e77dc	-0.06956455
10	0xbe8f47f6	-0.2798459
11	0xbde5434c	-0.111944765
12	0x3dfa545b	0.12223121
13	0xbdb77db6	-0.08959524
14	0xbd2fab4a	-0.042887963
15	0xbd2984f8	-0.041386575
16	0xbe02950e	-0.12752172
17	0x3c9bf087	0.01903559
18	0x3de63948	0.11241394
19	0x3c33c1a0	0.010971457
20	0xbe521065	-0.20514067
21	0xbde5181e	-0.111862406
22	0xbd9113c1	-0.07083846
23	0xbe2afe5d	-0.16698594
24	0xbdfcb04e	-0.12338315
25	0xbcd83dc8	-0.026396647
26	0xbe1ff9b3	-0.15622596
27	0xbde730cc	-0.11288604
28	0xbd9ce101	-0.076601036
29	0xbdd4d55d	-0.10392258
30	0xbdedd96b	-0.11613735
31	0xbae4186c	-0.0017402298
32	0xbd89f4ea	-0.06736167
33	0x3da50d60	0.08059192
34	0xbe067ab0	-0.13132739
35	0xbdfc65fd	-0.1232414
36	0xbd9a17f5	-0.07524101
37	0xb991c149	-0.00027800564
38	0xbd7ee9fa	-0.062234856
39	0x3dabfbdf	0.0839765
40	0x3cc76f4e	0.024345066
41	0xbe21e2b9	-0.15809144
42	0xbe94f75c	-0.2909497
43	0x3e0f50d7	0.13995682
44	0x3ac69bd5	0.0015152643
45	0x3bf3f9a8	0.007445533
46	0x3dca9c80	0.09893131
47	0xbe599713	-0.21249036
48	0x3e104abc	0.14091009
49	0xbd3b869c	-0.04578267
50	0xbe29c1de	-0.1657786
51	0x3bddfe0c	0.0067746695
52	0xbd237eba	-0.039915778
53	0x3d191673	0.037374925
54	0xbd4fe65d	-0.0507568
55	0xbe53611c	-0.20642513
56	0xbe34c637	-0.17653738
57	0x3d6aa316	0.057284437
58	0xbe086b59	-0.133222
59	0xbba47c50	-0.005019702
60	0x3d73ff62	0.059569724
61	0x3c685cd1	0.014182285
62	0x3dd23df5	0.102657236
63	0xbd883d7c	-0.06652352
64	0x3cd4b153	0.025963461
65	0xbd1d7a99	-0.038446996
66	0x3e2c7647	0.16841994
67	0xbe2ffdd9	-0.17186679
68	0xbcb1ba7b	-0.021695366
69	0xbcdbf93f	-0.026852248
70	0xbdd1ca81	-0.10243703
71	0x3d990a9d	0.074727274
72	0xbdb09cc6	-0.08623652
73	0xbe0dcde7	-0.13848077
74	0xbe170c5b	-0.14750807
75	0xbdc14b8f	-0.0943824
76	0xbd854a70	-0.065083385
77	0xbb97f9c8	-0.0046379305
78	0x3d354e6f	0.044264253
79	0xbe9d3d07	-0.30710623
80	0xbd7c9b20	-0.061671376
81	0xbe09965c	-0.13436264
82	0xbe10ed42	-0.14153007
83	0xbd9966fc	-0.07490346
84	0xbd15a7ca	-0.03653697
85	0xbe2c2078	-0.16809261
86	0xbde0bc56	-0.10973422
87	0x3dc63ae3	0.096792005
88	0xbcf6862d	-0.030093277
89	0xbe3ca3b9	-0.1842183
90	0x3db1bdef	0.08678805
91	0xbe93abdb	-0.28842053
92	0xbdd61868	-0.10453874
93	0x3bbd6c40	0.0057807267
94	0xbde2abde	-0.11067937
95	0xbdfcf532	-0.12351455
96	0x3da883f4	0.08228293
97	0xbddb1796	-0.10697858
98	0xbe2ffc02	-0.17185977
99	0x3d418305	0.04724409
100	0xbe1f9d5a	-0.15587369
101	0xbd3ef6bb	-0.04662202
102	0xbe03b7b2	-0.12863043
103	0xbd1f3cc5	-0.038876314
104	0xbcc891ea	-0.02448364
105	0xbd7fe820	-0.06247723
106	0xbd8d4858	-0.06898564
107	0xbdcc4b98	-0.09975356
108	0xbda02104	-0.07818797
109	0xbe3a62cc	-0.1820175
110	0xbe2637ea	-0.16232267
111	0xbd40f801	-0.047111515
112	0xbc2bc22b	-0.010483305
113	0xbd1355f0	-0.03597063
114	0xbd4fba63	-0.05071486
115	0xbdf40095	-0.119141735
116	0x3ca80647	0.020510806
117	0xbdeaa340	-0.11456919
118	0xbd7822f2	-0.0605802
119	0xbd4db8a7	-0.050224926
120	0x3e07638c	0.13221568
121	0xbe122823	-0.14273123
122	0xbdc37b1d	-0.09544966
123	0xbe10d1c4	-0.14142519
124	0xbd1276a1	-0.035757665
125	0xbc97a82f	-0.018512813
126	0xbd766501	-0.06015492
127	0xbde57930	-0.11204755
128	0x3df303e0	0.118659735
129	0xbc913e9f	-0.017730055
130	0xbe2bb753	-0.16769151
131	0x3bf012f5	0.0073264786
132	0x3c021046	0.00793845
133	0xbcab5f9d	-0.020919615
134	0x3cb3534c	0.021890305
135	0xbe953a5a	-0.2914608
136	0xbd3cd7e0	-0.046104312
137	0xbcfa40cd	-0.030548478
138	0xbcfa957f	-0.030588863
139	0xbe768f37	-0.2407807
140	0xbd8f7d9a	-0.070063785
141	0xbdcd8f38	-0.100370824
142	0x3c8aadf6	0.016928654
143	0x3d352633	0.044225883
144	0xbdf16b58	-0.11788052
145	0xbdd790be	-0.10525654
146	0xbe9188b9	-0.28424624
147	0xbe394fbf	-0.18096827
148	0x3dbb68d5	0.091508545
149	0x3d822bca	0.06356008
150	0xbe07c069	-0.13256992
151	0x3c1d5dfb	0.009604926
152	0xbcdf068e	-0.027224805
153	0xbe1bbd37	-0.15208898
154	0xbe293263	-0.16523127
155	0xbd8263d8	-0.063667
156	0xbce78b4a	-0.02826466
157	0x3d956911	0.072954305
158	0xbe2c0e53	-0.1680234
159	0xbdd2d162	-0.10293843
160	0xbde7e225	-0.113224305
161	0xbda5b1ff	-0.08090591
162	0xbdc4dbb5	-0.09612218
163	0xbec6c397	-0.38821098
164	0xbe000ca4	-0.12504822
165	0xbdb5c0f0	-0.088746905
166	0xbd28521d	-0.041093934
167	0x3ccde6df	0.025134502
168	0xba9b55a7	-0.0011851088
169	0xbc8c1d58	-0.017103836
170	0xbd598d54	-0.053113297
171	0xbdd5ba94	-0.104359776
172	0xbcbf9183	-0.023384815
173	0x3dc62423	0.09674861
174	0x3d761356	0.060077034
175	0xbd1d9ddc	-0.038480625
176	0x3bd1cb13	0.006402382
177	0xbdf7bde8	-0.120967686
178	0x3ceb3b70	0.028714865
179	0xbd690ee6	-0.056898974
180	0xbe0a46a8	-0.13503516
181	0xbd9a1747	-0.07523971
182	0xbd0b5a17	-0.034021463
183	0xbe27d490	-0.1638968
184	0xbd8afe99	-0.06786842
185	0x3e0f09f0	0.13968635
186	0xbd0e798b	-0.03478388
187	0xbe1ad404	-0.1511994
188	0xbcb58570	-0.022158355
189	0xbdc26c6b	-0.09493335
190	0xbce2cf6e	-0.0276868
191	0xbde07a96	-0.109608814
192	0x3cda367b	0.026637306
193	0xbe232d0b	-0.15935151
194	0xbdab0419	-0.08350391
195	0xbdc8f2d3	-0.0981194
196	0x3d114678	0.035467595
197	0xbc71a7b9	-0.014749461
198	0xbe2f517e	-0.1712093
199	0x3d32649d	0.043552984
200	0xbb8ace89	-0.0042360467
201	0x3e18e658	0.14931619
202	0xbde1a3e7	-0.1101759
203	0xbd08623f	-0.03329682
204	0xbd3e9c7e	-0.04653596
205	0xbcb0e928	-0.021595553
206	0x3db24e3c	0.08706328
207	0xbdffe8e2	-0.12495591
208	0xbe2f772e	-0.17135307
209	0xbc875ea5	-0.016524622
210	0xbe5b123b	-0.21393673
211	0xbe11ea02	-0.14249423
212	0xbd449ff3	-0.048004102
213	0x3e91f65d	0.28508273
214	0xbe781dba	-0.2423009
215	0x3e047ee6	0.12939033
216	0x3e34e7e2	0.17666581
217	0xbac7b471	-0.0015236271
218	0xbc415645	-0.011800353
219	0xbd74a357	-0.059726086
220	0xbdfa02e4	-0.122075826
221	0xbdcd6485	-0.10028938
222	0xbe42db29	-0.19028915
223	0xbe2e6ba6	-0.17033252
224	0xbe25fabd	-0.1620893
225	0xbd092b32	-0.03348846
226	0x3c8597fa	0.01630782
227	0xbe055283	-0.13019757
228	0x3dbfeb3d	0.0937104
229	0xbd885c10	-0.066581845
230	0xbd0f0325	-0.03491511
231	0xbe19ee02	-0.15032199
232	0xbddfd5ce	-0.10929452
233	0x3d5fafee	0.05461114
234	0xbd6e02ba	-0.05810807
235	0xbd07541c	-0.033039197
236	0xbe11e739	-0.1424836
237	0xbd75c12b	-0.059998672
238	0xbd960722	-0.07325579
239	0xbe2821bd	-0.1641912
240	0xbe3d3cf4	-0.18480283
241	0xbc1cd605	-0.009572511
242	0xbe275348	-0.16340363
243	0x3d2ae74b	0.041724484
244	0x3d922af3	0.07137098
245	0xbd2684ab	-0.040653866
246	0xbc99366f	-0.018702714
247	0xbd66323d	-0.056200255
248	0xbcd5dd4f	-0.026106505
249	0xbe94e592	-0.29081398
250	0xbdcd58b0	-0.100266814
251	0xbe4bcef4	-0.19903165
252	0xbe20305f	-0.15643452
253	0xbdee5227	-0.11636763
254	0xbdc4f747	-0.09617477
255	0x3cf303b2	0.029664848

mlp.fc2.bias f4 [256]
0	0x3cd73aa7	0.026273085
1	0xbc201630	-0.009770915
2	0x3d173672	0.036917157
3	0xbd4a2e4e	-0.049360566
4	0xbd41bb35	-0.047297675
5	0x3d106f50	0.035262406
6	0xb9a68409	-0.0003176036
7	0xbd9b670d	-0.07588015
8	0x3cc12923	0.023579186
9	0xbdbc3037	-0.09188884
10	0x3c898e03	0.01679135
11	0xbd89ca6c	-0.06728062
12	0x3c1738cb	0.009229849
13	0xbc4a646d	-0.012353045
14	0xbc079c7b	-0.008277054
15	0xbdaa7d21	-0.08324648
16	0xbd6b53aa	-0.057452835
17	0xbdd26c54	-0.10274568
18	0xbd30d77a	-0.043174244
19	0x3d1ea545	0.038731832
20	0xbd2ea977	-0.042642083
21	0xbd4aaf72	-0.049483724
22	0xbccfed1b	-0.025381615
23	0x3dc58564	0.09644583
24	0xbd858b3b	-0.06520697
25	0x3c3c88b5	0.011507203
26	0xbd61adff	-0.055097576
27	0xbd9741aa	-0.07385571
28	0x3e19f8ee	0.15036365
29	0xbd7a18a4	-0.061058655
30	0xbdb69940	-0.08915949
31	0x3d8358bb	0.06413408
32	0xbce36311	-0.0277572
33	0xbdad8da3	-0.08474281
34	0xbd356ad8	-0.044291347
35	0xbd354177	-0.044251885
36	0xbd3ae7fa	-0.045631386
37	0xbd8d1344	-0.0688844
38	0xbcc2b5ec	-0.023768388
39	0xbcc60fcd	-0.024177456
40	0xbcaf0e7b	-0.02136921
41	0x3dd68f6a	0.10476573
42	0xbd1a7652	-0.037710495
43	0x3cbe5b08	0.023236766
44	0xbc87b1dd	-0.016564304
45	0xbcb7ebfa	-0.02245139
46	0xbce0341b	-0.027368596
47	0xbcdc7ad9	-0.026914047
48	0x3dae0c6a	0.084984615
49	0x3dd11a1c	0.10210058
50	0x3d10c42c	0.035343334
51	0x3d04296e	0.032266073
52	0xbd767a60	-0.0601753
53	0x3d67281c	0.056434736
54	0x3bbd09ce	0.005768991
55	0x39d65757	0.00040882334
56	0xbbf5478b	-0.007485335
57	0xbdcd0725	-0.10011128
58	0x3d78dbe8	0.060756594
59	0xbcbef0c9	-0.023308175
60	0x3d3b6ca6	0.045757912
61	0xbd03d58f	-0.032186087
62	0xbcf4942b	-0.029855808
63	0xbc93f7b8	-0.018062457
64	0x3cdc142a	0.026865084
65	0x3d11b1d7	0.035569992
66	0x3dda9be1	0.10674263
67	0xbd9c6890	-0.07637131
68	0xbcd9a07d	-0.026565785
69	0xbd5872a8	-0.05284372
70	0x3d8326e3	0.064039014
71	0x3d209b24	0.039210454
72	0x3dda8278	0.10669416
73	0x3e63fca4	0.22264344
74	0xbcbea456	-0.02327172
75	0xbcc1f5eb	-0.023676833
76	0xbe42ba74	-0.19016439
77	0xbd8f3bdd	-0.0699384
78	0xbc4ef209	-0.012630948
79	0xbcd3dacc	-0.025861166
80	0xbd5987c0	-0.053107977
81	0x3db741af	0.08948075
82	0x3df70ab4	0.12062588
83	0xbd9556ce	-0.07291947
84	0xbd8d5235	-0.06900445
85	0xbd791d78	-0.06081912
86	0xbcf5718c	-0.02996137
87	0xbd978298	-0.07397956
88	0x3db8b4fb	0.09018894
89	0x3d8c5869	0.068528004
90	0xbd760288	-0.060061008
91	0xbb5d001c	-0.003372199
92	0x3cea3132	0.028587911
93	0xbd24cf07	-0.0402365
94	0x3c3475d0	0.011014417
95	0x3c7a1170	0.0152629465
96	0xbc39495b	-0.011308993
97	0x3da53794	0.08067241
98	0xbc904729	-0.017612057
99	0xbccfaefd	-0.025351996
100	0xbd818afb	-0.063253365
101	0x3c725c6d	0.014792544
102	0x3ba0ee6a	0.0049112337
103	0xbd19e56a	-0.037572302
104	0xbdd3fbb7	-0.10350745
105	0xbc62ffba	-0.013854915
106	0xbc12e402	-0.008965494
107	0x3d1ca40a	0.038242377
108	0xbc8f73bb	-0.01751124
109	0x3c8f270f	0.01747468
110	0x3bdf7917	0.006819855
111	0xbd9570f5	-0.072969355
112	0x3c04e0b0	0.00811021
113	0x3ba51cfc	0.0050388556
114	0xbc1b8816	-0.009492895
115	0xbd2fddc1	-0.04293609
116	0x3df4ed5f	0.119593374
117	0xbddbb9b8	-0.107287824
118	0x3c9805e2	0.018557493
119	0xbd38f25e	-0.045153014
120	0xbdab2cdc	-0.083581656
121	0xbc897997	-0.016781611
122	0xbd6b4d83	-0.057446968
123	0x3d092468	0.033481985
124	0xbd7b71b0	-0.061387718
125	0x3ce7fb8d	0.028318191
126	0xbc991cfe	-0.018690582
127	0xbda0e8cb	-0.07856902
128	0x3d34913a	0.04408381
129	0x3a697894	0.0008906212
130	0xbce0242c	-0.027360998
131	0xbd612bba	-0.05497334
132	0x3c8b0ba5	0.016973326
133	0xbda4dbdd	-0.08049748
134	0x3e034d91	0.12822558
135	0x3d7f3672	0.062307782
136	0xbbdce4cc	-0.006741142
137	0x3bf5c61a	0.007500422
138	0x3e054b6c	0.13017052
139	0x3cabc067	0.020965768
140	0xbd5c7958	-0.05382666
141	0xbcf33b87	-0.02969147
142	0xbb372f07	-0.0027951614
143	0xbd0adbd1	-0.03390104
144	0xbd78d771	-0.060752336
145	0xbcfd0285	-0.03088499
146	0xbc8347bb	-0.016025415
147	0x3d686d55	0.056744892
148	0xbd608b57	-0.054820385
149	0xbcb02455	-0.0215017
150	0x3bd59ec6	0.0065191714
151	0xbd36b7b8	-0.0446088
152	0x3c06fc1e	0.00823882
153	0xbd05cbb1	-0.03266496
154	0xbd395726	-0.045249127
155	0xbc19b4ac	-0.009381454
156	0xbdf121cc	-0.11774024
157	0x3d26c102	0.04071141
158	0xbd705591	-0.058675352
159	0xbdbaaca5	-0.091149606
160	0x3da38a27	0.07985335
161	0xbd7ed0e5	-0.062210936
162	0xbd80fccd	-0.06298218
163	0x3d50c729	0.050971184
164	0xbd290cd5	-0.041272003
165	0x3b5d4482	0.0033762758
166	0xbd575a4d	-0.052576352
167	0x3cba9660	0.022776783
168	0x3cbfb3ab	0.023401102
169	0xbc8e40ea	-0.017364938
170	0x3c84462e	0.016146746
171	0x3d9cb8da	0.07652445
172	0x3cca0cce	0.024664309
173	0x3dc90b1e	0.098165736
174	0x3c030ead	0.007999104
175	0xbd58d0bf	-0.05293345
176	0x3c922e49	0.017844336
177	0x3d4434ac	0.047901794
178	0xbd1ccb2b	-0.038279694
179	0xbd384d60	-0.044995666
180	0xba9c38a2	-0.0011918733
181	0x3d4415bb	0.047872286
182	0x3d7e640a	0.062107123
183	0xbe026e5d	-0.12737413
184	0x3bb96ac4	0.0056584794
185	0x3d0726e0	0.03299606
186	0x3c369608	0.011144169
187	0x3c6019f8	0.013678066
188	0x3d253516	0.04033383
189	0x3daa6454	0.08319917
190	0xbd3bbd92	-0.045835085
191	0x3c007451	0.007840232
192	0x3afd2fc2	0.0019316601
193	0xbd3fff8a	-0.04687456
194	0xbd93777e	-0.07200526
195	0xbd7db9b2	-0.06194467
196	0xbde4917e	-0.11160563
197	0xbe7fe111	-0.249882
198	0x3d467faa	0.048461594
199	0xbc907b9b	-0.017637065
200	0x3d969633	0.07352867
201	0x3c9cebfd	0.019155497
202	0xbce13e37	-0.027495487
203	0x3d149dac	0.03628318
204	0x3d02c5c9	0.031926904
205	0x3d2b82cc	0.041872784
206	0xbc9b6ea0	-0.018973649
207	0xbd889c6a	-0.066704586
208	0xbcccf02e	-0.02501687
209	0x3b86b2a1	0.0041106497
210	0xbda88fd3	-0.08230557
211	0x3c2a5cb4	0.010398079
212	0x3b5b43f9	0.0033457263
213	0xbd3ed79a	-0.046592332
214	0xba7ede6b	-0.0009722474
215	0xbb4f4e90	-0.003163252
216	0xbd926fe9	-0.071502514
217	0xbc9a900e	-0.018867519
218	0xbda09f04	-0.0784283
219	0xbd8b03d8	-0.067878425
220	0xbd6a0ff9	-0.05714414
221	0x3e12028b	0.14258783
222	0x3db697df	0.08915686
223	0x3d4945de	0.049138896
224	0xbe1a490b	-0.15066926
225	0xbe1f595d	-0.15561433
226	0xbdaadb3f	-0.08342599
227	0xbd6e5e83	-0.058195602
228	0xbdf87c19	-0.12133045
229	0xbd7715d7	-0.060323562
230	0xbd86fcf2	-0.06591214
231	0xbdba9895	-0.09111134
232	0x397e73e0	0.00024266494
233	0x3da5527b	0.080723725
234	0xbd2c1ac1	-0.042017702
235	0x3cf4983f	0.029857753
236	0xbcc763be	-0.024339553
237	0xbd972209	-0.073795386
238	0xbbf58d6c	-0.0074936654
239	0xbd13ee2c	-0.03611581
240	0x3d37fdab	0.04491965
241	0xbbdf8e8f	-0.006822414
242	0x3cc4d555	0.024027506
243	0xbd7af1ac	-0.061265633
244	0x3b94cf41	0.004541308
245	0xbd6b4e8d	-0.05744796
246	0xbd5c4e44	-0.053785577
247	0x3dae90f4	0.08523741
248	0xbbf94b24	-0.0076078344
249	0xbd0f1406	-0.034931205
250	0x3e04a754	0.12954456
251	0x3cab99de	0.020947393
252	0xbd856e5c	-0.0651519
253	0xbcc71098	-0.024299905
254	0xbd8604aa	-0.06543858
255	0xbd8769ff	-0.06612014

mlp.fc3.weight f4 [4, 256]
0	0xbd37ebdc	-0.044902667
1	0xbd90bf19	-0.07067699
2	0x3d1f5fc2	0.03890968
3	0xbd9608e1	-0.07325912
4	0xbd9fd13c	-0.0780358
5	0x3b238bb9	0.0024955107
6	0xbd01c035	-0.031677444
7	0xbd322a6f	-0.0434975
8	0x3d29a88d	0.04142051
9	0x3d8f88a5	0.07008485
10	0xbb797732	-0.003806543
11	0x3cfe62ab	0.031052908
12	0xbc38c244	-0.011276785
13	0xbb5fd4c5	-0.003415392
14	0x3e417c85	0.18895157
15	0x3c26e79b	0.010187055
16	0xbc1c9357	-0.009556613
17	0x3cbcbe5d	0.023039991
18	0xbd0efa5b	-0.034906726
19	0x3e5529d0	0.20816731
20	0xbd0c50ab	-0.03425662
21	0xbd18c4e9	-0.037297163
22	0x3c36e768	0.01116357
23	0x3e088430	0.13331676
24	0x3dbc0d1f	0.0918219
25	0xbc5ef172	-0.01360737
26	0xbd189e02	-0.037260063
27	0xbd3021f0	-0.043001115
28	0xb9558d96	-0.00020366008
29	0xbdf8e998	-0.121539295
30	0x3d0ea1d9	0.03482232
31	0x3e451ed9	0.19250049
32	0xbdf94329	-0.12171013
33	0x3d67dde4	0.056608096
34	0xbcd7c32a	-0.026338179
35	0xbc96daae	-0.018414821
36	0x3c41491c	0.011797216
37	0xbd616a3c	-0.055032954
38	0xbd4a9b2c	-0.04946439
39	0xbca6e51d	-0.020372922
40	0xbc912f30	-0.017722696
41	0xbd0cc51d	-0.03436767
42	0x3a063007	0.0005118851
43	0x3c16a6f6	0.00919508
44	0xba72fe27	-0.0009269439
45	0x3c68f85e	0.014219372
46	0xbdccf0b6	-0.100068495
47	0xbbc962cd	-0.006145811
48	0xbe45c727	-0.19314252
49	0xbc0446c6	-0.008073514
50	0xbdaa4ba8	-0.083152115
51	0x3ce9b087	0.028526558
52	0xbc1b4aad	-0.009478253
53	0xbcb19bdc	-0.021680765
54	0xbdcbe88d	-0.09956465
55	0x3c242054	0.010017473
56	0xbbde9e23	-0.0067937537
57	0x3cf647bf	0.030063508
58	0x3e527c31	0.20555188
59	0xbbb209b9	-0.005433288
60	0xbc4ca814	-0.012491245
61	0x3beb677f	0.0071839686
62	0x3c621a0c	0.013800155
63	0xbc8bd5cc	-0.01706972
64	0xbd6b46cf	-0.057440575
65	0x3d9d216b	0.076723896
66	0xbc28ca56	-0.010302147
67	0x3a02e7e5	0.00049936614
68	0xbaaa9b90	-0.0013016332
69	0xbdc09903	-0.09404185
70	0xbd9a438d	-0.075324155
71	0xbd178ad2	-0.036997624
72	0xbd3022e2	-0.043002017
73	0x3cedfd34	0.0290514
74	0xbc8beafb	-0.01707982
75	0xbd719ed6	-0.05898937
76	0xbbf5d343	-0.007501991
77	0xbbdff853	-0.0068350225
78	0xbc23811c	-0.009979513
79	0xbd868292	-0.06567873
80	0xbdab28a0	-0.08357358
81	0xbcde3c14	-0.027128257
82	0xbdbc01e9	-0.09180052
83	0xbab89500	-0.0014082491
84	0xbc2e6ef0	-0.010646567
85	0x3d9154d4	0.07096258
86	0x3dc627bf	0.0967555
87	0xbd3bb675	-0.0458283
88	0xbc93e761	-0.018054666
89	0xbdacceeb	-0.08437904
90	0x3c6549bd	0.013994631
91	0x3dcd0810	0.100113034
92	0x3dc7e20a	0.097599104
93	0x3c34f0cf	0.011043741
94	0x3d8479c4	0.064685374
95	0x3d80dbde	0.06291936
96	0xbce96850	-0.028492123
97	0x3e2e9bb9	0.17051591
98	0x3c74a49f	0.014931827
99	0xbdb9da8e	-0.09074889
100	0xbc50b4d2	-0.012738423
101	0xbd18ce28	-0.03730598
102	0xb6106a86	-2.1519677e-06
103	0x3cdc2aea	0.026875932
104	0x3d29d6a1	0.04146445
105	0x3d2eac95	0.042645056
106	0x3d342f1d	0.043990243
107	0x3c50fae6	0.012755131
108	0x3cfb36fa	0.030665863
109	0xbc15179b	-0.009099866
110	0x3b93dcfc	0.0045124274
111	0x3d836ea1	0.06417585
112	0xbd8335ae	-0.06406723
113	0xbcd2c3f1	-0.025728198
114	0x3e2ad845	0.16684063
115	0xbd3c9ff4	-0.04605098
116	0xbe4508fe	-0.19241711
117	0x3ae6995d	0.0017593313
118	0x3cc6786f	0.02422735
119	0xbe088bad	-0.13334532
120	0xbbec3ef0	-0.007209651
121	0xbb9a0d8b	-0.0047013215
122	0x3d431e9f	0.047636624
123	0x3b439d33	0.0029848337
124	0x3c3bf183	0.011471155
125	0xbd161bf5	-0.036647756
126	0xbc8d661c	-0.017260604
127	0xbd0435b7	-0.03227779
128	0xbc65edd9	-0.014033758
129	0xbda4dc14	-0.08049789
130	0xbda26377	-0.07929128
131	0x3e12b87b	0.14328186
132	0x3dbc8029	0.09204132
133	0x3c8939da	0.016751219
134	0xbe7d6cb9	-0.24748506
135	0xbe116cec	-0.14201707
136	0xbd936a0c	-0.07197961
137	0x3d2c1d0c	0.04201989
138	0xbc8df48b	-0.017328521
139	0xbca6d4b4	-0.020365097
140	0xbcc7d1b1	-0.02439198
141	0xbcb7c613	-0.022433316
142	0xbb2346c5	-0.0024914008
143	0x3b5bb846	0.0033526584
144	0xbbdd428e	-0.0067523187
145	0x3d90b915	0.070665516
146	0x3ce640b4	0.028107025
147	0x3e6820c4	0.22668749
148	0x3b8af27f	0.0042403336
149	0x3c9ac0a0	0.018890679
150	0xbb840aa0	-0.004029587
151	0x3cd8353f	0.026392577
152	0xbc883bea	-0.016630132
153	0x3dcf1655	0.10111681
154	0xbc92d5dd	-0.017924244
155	0x3ceb563d	0.028727645
156	0xbd5a3d8c	-0.053281352
157	0xbd9af2df	-0.07565855
158	0xbd12634b	-0.035739224
159	0x3d1d2443	0.03836466
160	0x3c1a7f07	0.0094297
161	0x3c9b1d99	0.018935012
162	0x3b498078	0.003074674
163	0xbc947dcf	-0.018126396
164	0x3c29f21c	0.010372665
165	0xbd3e11b7	-0.046403613
166	0xbc5367f7	-0.012903205
167	0xbcf5507d	-0.029945606
168	0x398e5a73	0.0002715174
169	0x3d93d96d	0.07219205
170	0xbc9b43e1	-0.018953266
171	0xbe56bad2	-0.20969704
172	0x3daced0f	0.08443653
173	0xbd13f240	-0.0361197
174	0xbc778b2b	-0.015108864
175	0xbb9dd29f	-0.0048163678
176	0xbc62dd2b	-0.013846676
177	0xbc3a7689	-0.0113808
178	0x3c728896	0.014803072
179	0xbd323675	-0.043508966
180	0x3ce997dc	0.028514795
181	0x3d84611e	0.06463836
182	0x3c3a61e9	0.011375883
183	0xbd3af730	-0.045645893
184	0x38597526	5.1845935e-05
185	0xbc8e5f1e	-0.01737934
186	0x3cc56d1b	0.024099877
187	0xbd2f0fcf	-0.042739686
188	0xbd8e5586	-0.06949906
189	0x3d17e8cf	0.037087258
190	0x3c9516bb	0.018199315
191	0xbca165e3	-0.019701904
192	0xbc8b5d7e	-0.017012354
193	0xbbf637ea	-0.0075139897
194	0xbb61eb77	-0.0034472623
195	0x3cb3e255	0.02195851
196	0xbd3f621f	-0.046724435
197	0xbddf3652	-0.10899033
198	0x3bccae59	0.00624637
199	0xbd94f6bc	-0.07273623
200	0x3cb73aff	0.022366999
201	0xbd09a86b	-0.03360788
202	0xbd91567a	-0.07096572
203	0x3da470b2	0.080293074
204	0x3c342c4d	0.01099689
205	0xbdedad15	-0.116052784
206	0xbde62385	-0.112372436
207	0xbd4a4844	-0.049385324
208	0x3a8e6fc5	0.001086705
209	0xbba1c5b0	-0.0049368963
210	0x3d399613	0.045309138
211	0x3c74e7bd	0.014947829
212	0x3b07837c	0.0020677736
213	0x3c5ea896	0.013589999
214	0x3c9d60a0	0.019211113
215	0x3bfd758e	0.007734961
216	0x3d804968	0.06264001
217	0xbd16806a	-0.03674356
218	0xbc8a5ee8	-0.016890958
219	0xbd0c5115	-0.034257013
220	0x3c9a1a45	0.018811354
221	0x3d6eedd4	0.05833228
222	0xba898da4	-0.0010494483
223	0xbd362990	-0.04447323
224	0x3d447d6c	0.047971174
225	0xbd5c7a34	-0.05382748
226	0xbd5a3d5e	-0.05328118
227	0x3ba5cbde	0.0050597033
228	0xbdc1205b	-0.094299994
229	0x3db670b8	0.08908218
230	0xbc60307a	-0.013683433
231	0xbcc98eb5	-0.02460418
232	0x3d78d09c	0.06074582
233	0xbe32ad69	-0.17448963
234	0xbc015ffd	-0.007896421
235	0x3dbb0d0e	0.09133349
236	0xbbbac150	-0.005699314
237	0xbd04362a	-0.032278217
238	0xbc1aec26	-0.009455716
239	0xbdc123c5	-0.094306506
240	0x3d03ae1c	0.032148466
241	0x3e3e444c	0.1858074
242	0x3c648b80	0.013949275
243	0xbcd0b98e	-0.025479104
244	0xbd96fa2b	-0.073719345
245	0xbd4151c2	-0.04719711
246	0xbdb92f4c	-0.09042224
247	0xbb239c97	-0.002496516
248	0x3d05369e	0.03252279
249	0x3d35aad6	0.044352375
250	0x3dffaa81	0.12483693
251	0x3b3cc665	0.0028804776
252	0x3bc6606a	0.006053974
253	0x3cbe8737	0.023257835
254	0xbde52bc8	-0.11189991
255	0x3d1f57a8	0.038901955

mlp.fc3.bias f4 [4]
0	0xbd4f10ec	-0.050553247
1	0x3dbdadd1	0.092616685
2	0xbdaa2c10	-0.083091855
3	0x3c9b800b	0.018981954

linear_k.weight f4 [1, 4]
0	0xbbf7a2c6	-0.007557246
1	0x3ca7a36b	0.020463666
2	0x3e7c1557	0.24617516
3	0x3f6026da	0.8755928

exp_avg f4 [256, 4]
0	0x38af8ffd	8.37147e-05
1	0x3704b612	7.910205e-06
2	0x378b09e6	1.65747e-05
3	0x370d76d7	8.4319245e-06
4	0x387dd9ba	6.0522674e-05
5	0xb8877bd9	-6.46037e-05
6	0x389d30d7	7.4954405e-05
7	0xb81e0e81	-3.7683643e-05
8	0x39f4b3b4	0.00046673196
9	0x398cc816	0.00026851956
10	0x393db26e	0.00018090915
11	0xb8de0240	-0.00010586204
12	0x39154128	0.0001423402
13	0xb9ba6cf1	-0.00035557852
14	0x37f746a5	2.9477591e-05
15	0xba139318	-0.00056295237
16	0x376875fd	1.3855749e-05
17	0xb713a108	-8.799376e-06
18	0xb85bb8c4	-5.2385745e-05
19	0x37a06828	1.9121988e-05
20	0xb988a237	-0.000260608
21	0xb99bb92c	-0.00029701868
22	0x38eb0b41	0.000112077694
23	0xb90c1518	-0.00013359298
24	0x3a3c19cd	0.00071754755
25	0x3942e8f4	0.00018588064
26	0x3a11498b	0.000554227
27	0xb9f8aa26	-0.00047429017
28	0x3807f39c	3.2413387e-05
29	0xb7696a4e	-1.3912633e-05
30	0x38ac4186	8.213804e-05
31	0x37fc8ea6	3.0107167e-05
32	0x00000026	5.3e-44
33	0x80000005	-7e-45
34	0x8000003d	-8.5e-44
35	0x80000071	-1.58e-43
36	0x38f081fd	0.00011468304
37	0x388791a4	6.464429e-05
38	0xb8466f3d	-4.7310477e-05
39	0x37f6183f	2.9336776e-05
40	0xbb1ef082	-0.002425224
41	0xba224ffe	-0.00061917293
42	0xba07419b	-0.0005159617
43	0xb9ee7fb2	-0.00045490038
44	0x3864fcc0	5.4594828e-05
45	0xb7e6a818	-2.7496411e-05
46	0x39a1bd90	0.00030849548
47	0xb8776988	-5.8987673e-05
48	0x36e96091	6.955183e-06
49	0xb58de0c6	-1.0570736e-06
50	0x383816e5	4.389034e-05
51	0xb7ce41b0	-2.4587702e-05
52	0xb4977921	-2.8214075e-07
53	0xb4400868	-1.7884452e-07
54	0xb4d2df35	-3.9277953e-07
55	0xb26fe873	-1.3964484e-08
56	0xba4c1871	-0.00077856245
57	0xb9ca75f7	-0.00038616333
58	0xb8eb3be6	-0.0001121683
59	0xb8788075	-5.9247443e-05
60	0x3893051f	7.01046e-05
61	0x38f275f5	0.000115614304
62	0xb903d50b	-0.00012572498
63	0x3696bf3c	4.492611e-06
64	0xb9249861	-0.00015697024
65	0xb9207661	-0.00015302889
66	0x398ce1ae	0.00026871025
67	0x38735127	5.8011294e-05
68	0x3750f44c	1.2454646e-05
69	0x383f1395	4.5556186e-05
70	0xb7271b7e	-9.960377e-06
71	0xb7d3fb34	-2.5270136e-05
72	0x387e2fd9	6.060288e-05
73	0xba09edb6	-0.0005261557
74	0xba4d1765	-0.00078236155
75	0xba595421	-0.0008290429
76	0x3a3fec17	0.0007321252
77	0xb9b6c75a	-0.00034862274
78	0xb8f69192	-0.00011757309
79	0xb9dbe105	-0.00041938588
80	0x38e49faa	0.00010901627
81	0xb9af6c9d	-0.00033459524
82	0xb9979e54	-0.00028918928
83	0xb9ff5823	-0.00048703057
84	0xb7ab7f54	-2.044408e-05
85	0xb6a77e67	-4.991703e-06
86	0xb846f972	-4.7439193e-05
87	0xb6549a7d	-3.1680386e-06
88	0x3900d42c	0.00012286071
89	0xb9e985bd	-0.00044540866
90	0xba130840	-0.00056088343
91	0xba307726	-0.00067316217
92	0x36b5ec61	5.4217385e-06
93	0xb68546c2	-3.971946e-06
94	0xb7361d2c	-1.08548375e-05
95	0xb620ac26	-2.3942061e-06
96	0x39045617	0.00012620572
97	0x3a23abd9	0.0006243564
98	0x3912804e	0.00013971442
99	0x38b8072f	8.775142e-05
100	0x39d54ab7	0.00040682193
101	0x386024ff	5.3440217e-05
102	0xb93e1368	-0.00018127041
103	0xb92f074f	-0.00016692023
104	0x37d19ce7	2.4987805e-05
105	0x3787386f	1.6119533e-05
106	0xb78b0181	-1.6570792e-05
107	0x37c1663b	2.3054998e-05
108	0x381110d8	3.458638e-05
109	0xb7e3458d	-2.7092896e-05
110	0xb83c1283	-4.4839933e-05
111	0xb810809e	-3.445206e-05
112	0x390cb06a	0.0001341716
113	0x37be4b3a	2.2684795e-05
114	0x392d6fc7	0.00016540206
115	0xb75cf942	-1.3171057e-05
116	0x35d97b7b	1.6203697e-06
117	0xb6dc0967	-6.5576055e-06
118	0x37a5701d	1.972174e-05
119	0xb7240b9d	-9.777866e-06
120	0x37eb5516	2.8053804e-05
121	0x38eec724	0.00011385817
122	0x38f609e5	0.00011732037
123	0xb73cf93d	-1.12637035e-05
124	0xbaf897f6	-0.0018966186
125	0xb977d955	-0.00023636718
126	0xb911a955	-0.00013891359
127	0xb8930fe0	-7.012463e-05
128	0xbb3f8335	-0.0029222493
129	0xb9d322f1	-0.0004027109
130	0xb9f2f55d	-0.00046340647
131	0xb9ea127b	-0.00044645727
132	0x38128dbb	3.494111e-05
133	0x3706672b	8.011043e-06
134	0xb755c154	-1.2740802e-05
135	0x374848ae	1.1937851e-05
136	0x37d8a47b	2.5825799e-05
137	0xb7186467	-9.083283e-06
138	0xb5138c26	-5.496571e-07
139	0xb697e645	-4.5269576e-06
140	0x37003cfd	7.6435945e-06
141	0xb64a1274	-3.0111087e-06
142	0x350ac611	5.169723e-07
143	0xb62703a2	-2.4887054e-06
144	0x3946e2c9	0.00018967236
145	0xb8a833a6	-8.0204845e-05
146	0xb74f168a	-1.2343409e-05
147	0xb660f251	-3.3519648e-06
148	0x3568bcc4	8.6701425e-07
149	0x346757bb	2.1545468e-07
150	0x34227d85	1.513309e-07
151	0xb4c7eb25	-3.723773e-07
152	0xbaba631a	-0.0014220208
153	0xba08f736	-0.00052248256
154	0xb8efb2c1	-0.000114297036
155	0xb92dea2d	-0.00016585803
156	0x39f92185	0.00047517955
157	0xb9950057	-0.00028419748
158	0x3888f674	6.530891e-05
159	0xb8cdac6f	-9.80728e-05
160	0x3843d47d	4.6689518e-05
161	0xb5a504f5	-1.2294901e-06
162	0xb96d2081	-0.0002261419
163	0x37d165bf	2.496212e-05
164	0x3718d35a	9.109115e-06
165	0xb62b778a	-2.5550567e-06
166	0x36811b82	3.847702e-06
167	0xb6fa86cb	-7.4662726e-06
168	0xb7ef627f	-2.8536886e-05
169	0xb923ece6	-0.00015633143
170	0xb9909562	-0.0002757712
171	0xba7d52e7	-0.00096635375
172	0xba9a252d	-0.0011760347
173	0x39ba05d2	0.0003548102
174	0xb7fcc4bc	-3.0132353e-05
175	0x391755dd	0.00014432469
176	0x36003aeb	1.910778e-06
177	0x336b7541	5.4821843e-08
178	0x363307d6	2.667764e-06
179	0x33631c9b	5.2878573e-08
180	0x37a0cdbf	1.9169294e-05
181	0xb766ac80	-1.3749232e-05
182	0xb887c6b6	-6.4743144e-05
183	0x377883ec	1.4812667e-05
184	0x38a30138	7.772673e-05
185	0x392988e8	0.00016168097
186	0x390ca60b	0.00013413296
187	0x39e39c00	0.00043413043
188	0xba3a7519	-0.0007112786
189	0xb9de7c20	-0.0004243562
190	0xba25e3ab	-0.00063281757
191	0xb9b2a7d8	-0.0003407586
192	0x34d9dcc8	4.058004e-07
193	0xb430405a	-1.6414688e-07
194	0xb307ef04	-3.164952e-08
195	0xb4db106a	-4.0803872e-07
196	0xb9d2c700	-0.00040202588
197	0xb8317b16	-4.231472e-05
198	0xb4819175	-2.4133956e-07
199	0xb778b4df	-1.4824064e-05
200	0xba13a3bf	-0.0005632005
201	0xb935475b	-0.00017288087
202	0x38d1ab1d	9.997769e-05
203	0xb8619d23	-5.3790525e-05
204	0x3703b152	7.849494e-06
205	0x3947ddb2	0.00019060707
206	0x3944fa30	0.00018785219
207	0x37b30db3	2.1344842e-05
208	0xb9c7c74f	-0.00038104734
209	0xbaaec911	-0.0013335069
210	0xb8989564	-7.275751e-05
211	0xb945c223	-0.00018859706
212	0xb904545b	-0.00012619926
213	0xb8fc1ab7	-0.000120212724
214	0xb9c6353f	-0.00037805174
215	0x388e4f21	6.7858266e-05
216	0x38c8630c	9.555192e-05
217	0x3862f136	5.4107244e-05
218	0xb94527bb	-0.00018802185
219	0xb76662fe	-1.3732117e-05
220	0x351c75b1	5.828579e-07
221	0x389ca7c9	7.469912e-05
222	0x3a09e352	0.00052600086
223	0x38ae94f9	8.324715e-05
224	0x386b2cc4	5.6070057e-05
225	0xb9085430	-0.00013001333
226	0x37bb7f20	2.2351334e-05
227	0x37402763	1.1453262e-05
228	0x3726b034	9.9353965e-06
229	0xb543ebab	-7.2986103e-07
230	0x36c365a5	5.823286e-06
231	0x37ab4f6e	2.0421776e-05
232	0xb3130377	-3.4229256e-08
233	0xb4892522	-2.5545256e-07
234	0xb303c441	-3.0679306e-08
235	0xb4953989	-2.7795275e-07
236	0x38290f36	4.0306906e-05
237	0xb7d88035	-2.5808908e-05
238	0x39547f03	0.00020265211
239	0xb81c0939	-3.7201888e-05
240	0xb530d75c	-6.58785e-07
241	0xb6053b4d	-1.9853062e-06
242	0xb71f18aa	-9.482881e-06
243	0xb5c9ae8b	-1.5026466e-06
244	0xba94792a	-0.0011327614
245	0xb9d0106c	-0.00039685087
246	0x38bbe3a6	8.959258e-05
247	0xb92f9cee	-0.00016747761
248	0xb7faaddc	-2.9883282e-05
249	0x36d59747	6.3655057e-06
250	0xb79b4aef	-1.8512334e-05
251	0x36874b0b	4.0320497e-06
252	0x38f64eb5	0.000117448544
253	0x371127da	8.651952e-06
254	0x3881c496	6.187816e-05
255	0xb81cbe35	-3.7370442e-05

exp_avg_sq f4 [256, 4]
0	0x351fdb76	5.9551473e-07
1	0x3311b167	3.392179e-08
2	0x33e56b76	1.06831905e-07
3	0x34291378	1.5746434e-07
4	0x342a1148	1.583877e-07
5	0x35186e0f	5.678457e-07
6	0x3315f598	3.4915132e-08
7	0x34010fd4	1.201982e-07
8	0x38178602	3.612601e-05
9	0x36a15b4f	4.8088036e-06
10	0x3575e5d6	9.160407e-07
11	0x3627c5a6	2.4999986e-06
12	0x37ffd45b	3.0497255e-05
13	0x36b988e5	5.5293663e-06
14	0x35a2f18e	1.2140242e-06
15	0x36493fb9	2.9988425e-06
16	0x380c38e5	3.343159e-05
17	0x35bd894e	1.4121558e-06
18	0x34f8cca9	4.634251e-07
19	0x34f2f00e	4.5250675e-07
20	0x36a216d1	4.8306324e-06
21	0x355a52a6	8.13316e-07
22	0x342ba316	1.5984946e-07
23	0x3454247f	1.9757316e-07
24	0x39111185	0.00013834804
25	0x379a95aa	1.8427923e-05
26	0x368ab16a	4.133374e-06
27	0x37202906	9.546295e-06
28	0x34030eed	1.2205756e-07
29	0x334322a8	4.5433495e-08
30	0x334de766	4.7940738e-08
31	0x33339fc5	4.1821995e-08
32	0x32154762	8.689172e-09
33	0x31b5d033	5.291463e-09
34	0x32c8e5f9	2.3387644e-08
35	0x3299f4eb	1.792292e-08
36	0x35216d30	6.013606e-07
37	0x33f3ea04	1.13581365e-07
38	0x3441eee1	1.806143e-07
39	0x3390cf91	6.743279e-08
40	0x38ff4668	0.00012172462
41	0x375308e6	1.2578652e-05
42	0x36813218	3.8503313e-06
43	0x371c5753	9.318656e-06
44	0x359b9b38	1.1593575e-06
45	0x346983e4	2.1747798e-07
46	0x34a26882	3.025089e-07
47	0x33fdb7c2	1.1814656e-07
48	0x370c9184	8.378531e-06
49	0x34c0e42e	3.592881e-07
50	0x3469d433	2.1777014e-07
51	0x347b1c66	2.3386528e-07
52	0x334bbb44	4.7434938e-08
53	0x32635923	1.3233406e-08
54	0x32f6175e	2.8648795e-08
55	0x32dd75b6	2.5781315e-08
56	0x36f3d974	7.267279e-06
57	0x35ba447b	1.387801e-06
58	0x34e010e1	4.1735532e-07
59	0x34864f8f	2.5017331e-07
60	0x370142d4	7.704559e-06
61	0x36856a63	3.976094e-06
62	0x3500ef8c	4.80323e-07
63	0x34c99767	3.7549327e-07
64	0x3745d193	1.179091e-05
65	0x362248dc	2.418229e-06
66	0x3537c3df	6.845784e-07
67	0x3547b462	7.439577e-07
68	0x3548c245	7.4788505e-07
69	0x35b2058d	1.3263649e-06
70	0x34ca7168	3.7707946e-07
71	0x34870ad7	2.5153597e-07
72	0x371b82af	9.269147e-06
73	0x35d31f50	1.5729838e-06
74	0x36525c03	3.1345996e-06
75	0x36681635	3.458362e-06
76	0x380baf95	3.3303706e-05
77	0x36a9aef2	5.056959e-06
78	0x359fa16b	1.1893402e-06
79	0x3611654c	2.1665646e-06
80	0x3551bb19	7.813083e-07
81	0x34aae2e6	3.1830058e-07
82	0x3429cf74	1.5814823e-07
83	0x350b18f8	5.181787e-07
84	0x350f0239	5.3274886e-07
85	0x33a8369b	7.833042e-08
86	0x34a5c4e7	3.087691e-07
87	0x340be77b	1.3029596e-07
88	0x367abc0e	3.7362365e-06
89	0x3544255d	7.307006e-07
90	0x35b4e9c6	1.3479082e-06
91	0x35fed641	1.8986831e-06
92	0x35209424	5.982022e-07
93	0x3423f336	1.5269038e-07
94	0x33542d78	4.940145e-08
95	0x336960eb	5.4337686e-08
96	0x379100ff	1.728581e-05
97	0x366138e6	3.3560732e-06
98	0x35ba40bd	1.3876921e-06
99	0x3617e6ea	2.2635163e-06
100	0x38149c66	3.5431607e-05
101	0x36d75f3e	6.418587e-06
102	0x35da5617	1.6267321e-06
103	0x36acc903	5.1494003e-06
104	0x3389cae9	6.416469e-08
105	0x352a583b	6.345833e-07
106	0x331c8832	3.644545e-08
107	0x331b9b89	3.6230208e-08
108	0x34b8c20a	3.4413853e-07
109	0x34b3e985	3.3511256e-07
110	0x3362fdcf	5.2850563e-08
111	0x331a76ac	3.596385e-08
112	0x35902215	1.0738755e-06
113	0x34b4cf8f	3.3678631e-07
114	0x3400aa9c	1.1982996e-07
115	0x339fc078	7.439024e-08
116	0x348760d6	2.5216167e-07
117	0x34a35d65	3.042907e-07
118	0x3491789e	2.7096115e-07
119	0x34098184	1.2806237e-07
120	0x359bb03a	1.1599689e-06
121	0x3492b8fe	2.732922e-07
122	0x33bbd57b	8.746698e-08
123	0x3372d198	5.653564e-08
124	0x38897980	6.5553e-05
125	0x375ca3d1	1.3151163e-05
126	0x36142f75	2.2081342e-06
127	0x36fe5a41	7.580297e-06
128	0x3909e035	0.00013148862
129	0x37a90ced	2.0152389e-05
130	0x36a01493	4.7707667e-06
131	0x3756389b	1.27685735e-05
132	0x345c90ad	2.054173e-07
133	0x333c064b	4.3777884e-08
134	0x3381bad2	6.041013e-08
135	0x32ae5566	2.02951e-08
136	0x34f17fb9	4.4982679e-07
137	0x35feb2dc	1.897653e-06
138	0x33811669	6.011107e-08
139	0x337402ee	5.681334e-08
140	0x34e5a8b1	4.2777313e-07
141	0x359b2a42	1.1560699e-06
142	0x33e42534	1.06238446e-07
143	0x339a5be7	7.187901e-08
144	0x351fe16e	5.956016e-07
145	0x36a5d802	4.94253e-06
146	0x340bf275	1.3033589e-07
147	0x33eca692	1.1019905e-07
148	0x327eaff7	1.4824756e-08
149	0x3327b053	3.9043083e-08
150	0x3268d8f0	1.3553503e-08
151	0x31bf2e88	5.5641216e-09
152	0x37e359a1	2.7102245e-05
153	0x368e84be	4.247383e-06
154	0x356b5424	8.766676e-07
155	0x35e81660	1.7291859e-06
156	0x35ed3b6a	1.7675168e-06
157	0x36c2618c	5.7930065e-06
158	0x34bc02e2	3.5019826e-07
159	0x344f78af	1.9322282e-07
160	0x35c4d5c3	1.4665351e-06
161	0x3426f9f6	1.555089e-07
162	0x342ad843	1.591116e-07
163	0x33326264	4.153334e-08
164	0x3481a470	2.4147766e-07
165	0x34c8b24b	3.7382628e-07
166	0x34304064	1.6414702e-07
167	0x33b25e47	8.30592e-08
168	0x36f7c370	7.3839255e-06
169	0x35bedb47	1.4219921e-06
170	0x35dbd8ed	1.6379905e-06
171	0x3683659d	3.9159336e-06
172	0x378aee21	1.656177e-05
173	0x3748a1ef	1.1958632e-05
174	0x355f0a8e	8.308933e-07
175	0x35f2a03e	1.8077042e-06
176	0x349c64d2	2.913062e-07
177	0x3392326a	6.807825e-08
178	0x335af114	5.097634e-08
179	0x333d8e94	4.4134666e-08
180	0x34528b53	1.960846e-07
181	0x34acd1c5	3.2190124e-07
182	0x333bbffb	4.3713936e-08
183	0x334356d9	4.5480963e-08
184	0x35dc314d	1.6405626e-06
185	0x3482ae45	2.4341185e-07
186	0x348cdf40	2.6239468e-07
187	0x35530981	7.8617455e-07
188	0x378d7a04	1.6865328e-05
189	0x36769f4d	3.6749582e-06
190	0x35929a73	1.0922798e-06
191	0x3572558d	9.027652e-07
192	0x326c522b	1.3755691e-08
193	0x317c39aa	3.6703605e-09
194	0x32f386f7	2.8350298e-08
195	0x32cb4c8a	2.3667116e-08
196	0x368c6ad4	4.1847616e-06
197	0x3519df1c	5.732161e-07
198	0x341e68fc	1.475309e-07
199	0x3444f6f2	1.834376e-07
200	0x37439548	1.1657663e-05
201	0x35e83f9b	1.7303859e-06
202	0x350bb4a3	5.2044396e-07
203	0x34b07ed4	3.2874834e-07
204	0x3569fab2	8.7164074e-07
205	0x359dddd0	1.1761967e-06
206	0x33f63435	1.1464764e-07
207	0x33d6a936	9.995931e-08
208	0x36f012aa	7.15473e-06
209	0x37721e9d	1.4431452e-05
210	0x35da3beb	1.6259704e-06
211	0x35a9518c	1.2615214e-06
212	0x36861562	3.9960005e-06
213	0x36057bb0	1.989054e-06
214	0x34d326a2	3.9329922e-07
215	0x34223068	1.5105036e-07
216	0x354e47be	7.684538e-07
217	0x33dfa4f4	1.04142515e-07
218	0x342016f8	1.4909517e-07
219	0x33d16c30	9.752e-08
220	0x36984033	4.537427e-06
221	0x3541adee	7.2151204e-07
222	0x359a71b4	1.1506986e-06
223	0x35889034	1.0174758e-06
224	0x36813acc	3.8513444e-06
225	0x35b9bccc	1.3838521e-06
226	0x34ddba0e	4.129983e-07
227	0x35166eeb	5.604076e-07
228	0x35946021	1.1054836e-06
229	0x34e00257	4.1724954e-07
230	0x342c2541	1.6032301e-07
231	0x34a8b9f7	3.1427746e-07
232	0x330a93d2	3.226507e-08
233	0x32b16c2c	2.0654703e-08
234	0x3341b4df	4.5100816e-08
235	0x336fd0d1	5.583644e-08
236	0x342c70a3	1.6059725e-07
237	0x341f4bdb	1.4835625e-07
238	0x33d4b251	9.904455e-08
239	0x32d290e0	2.4513099e-08
240	0x320accff	8.079268e-09
241	0x31271aee	2.4317006e-09
242	0x3265cf6d	1.33767175e-08
243	0x3201a071	7.545268e-09
244	0x379f540c	1.8993414e-05
245	0x36f9b3db	7.441716e-06
246	0x35a8e99c	1.2584965e-06
247	0x3659656b	3.2394553e-06
248	0x35c58f6e	1.4719387e-06
249	0x34499346	1.8773162e-07
250	0x33d90179	1.0105118e-07
251	0x333f4c04	4.453979e-08
252	0x354370c8	7.280728e-07
253	0x33d08218	9.709419e-08
254	0x3351eb53	4.887563e-08
255	0x333243b8	4.1505444e-08
